…
         DoS       1.00      1.00      1.00     13913
       Mirai       1.00      1.00      1.00     13651
    Spoofing       1.00      1.00      1.00      8482

    accuracy                           1.00     66663
   macro avg       1.00      1.00      1.00     66663
weighted avg       1.00      1.00      1.00     66663

CNN Classifier
-----------------------------------------------------------------------
_________________________________________________________________
 Layer (type)                Output Shape              Param #
=================================================================
 conv1d (Conv1D)             (None, 21, 64)            256

 max_pooling1d (MaxPooling1D  (None, 10, 64)           0
 )

 conv1d_1 (Conv1D)           (None, 8, 64)             12352

 max_pooling1d_1 (MaxPooling  (None, 4, 64)            0
 1D)

 flatten (Flatten)           (None, 256)               0

 dense (Dense)               (None, 64)                16448

 dropout (Dropout)           (None, 64)                0

 dense_1 (Dense)             (None, 5)                 325

=================================================================
Total params: 29,381
Trainable params: 29,381
Non-trainable params: 0

             precision    recall  f1-score   support

      Benign    1.00      1.00      1.00     13151
      DDoS      1.00      1.00      1.00     17466
      DoS       1.00      0.99      1.00     13913
      Mirai     1.00      1.00      1.00     13651
      Spoofing  1.00      1.00      1.00      8482

  accuracy                           1.00     66663
  macro avg      1.00      1.00      1.00     66663
  weighted avg   1.00      1.00      1.00     66663

LSTM_Classifier
---------------------------------------------------------
_________________________________________________________________
 Layer (type)                Output Shape              Param #
=================================================================
 lstm (LSTM)                 (None, 1, 32)             7168

 dropout (Dropout)           (None, 1, 32)             0

 lstm_1 (LSTM)               (None, 16)                3136

 dropout_1 (Dropout)         (None, 16)                0

 dense (Dense)               (None, 5)                 85

=================================================================
              precision    recall  f1-score   support

   Benign       1.00      1.00      1.00     13151
   DDoS         0.99      1.00      1.00     17466
   DoS          1.00      0.99      1.00     13913
   Mirai        1.00      1.00      1.00     13651
   Spoofing     1.00      1.00      1.00      8482

    accuracy                           1.00     66663
…
